…
        "_uuid": "b75c616941d39ffb3884172f9ee5e889e9293698"
      },
      "cell_type": "code",
      "source": "from keras import backend as K\nnum_classes=12\nmodel = vgg19_model(num_classes)\nmodel.compile(optimizer=\"nadam\", loss='categorical_crossentropy', metrics=['accuracy',fscore])\nmodel.summary()",
      "execution_count": 8,
      "outputs": [
        {
          "output_type": "stream",
          "text": "_________________________________________________________________\nLayer (type)                 Output Shape              Param #   \n=================================================================\ninput_1 (InputLayer)         (None, 224, 224, 3)       0         \n_________________________________________________________________\nblock1_conv1 (Conv2D)        (None, 224, 224, 64)      1792      \n_________________________________________________________________\nblock1_conv2 (Conv2D)        (None, 224, 224, 64)      36928     \n_________________________________________________________________\nblock1_pool (MaxPooling2D)   (None, 112, 112, 64)      0         \n_________________________________________________________________\nblock2_conv1 (Conv2D)        (None, 112, 112, 128)     73856     \n_________________________________________________________________\nblock2_conv2 (Conv2D)        (None, 112, 112, 128)     147584    \n_________________________________________________________________\nblock2_pool (MaxPooling2D)   (None, 56, 56, 128)       0         \n_________________________________________________________________\nblock3_conv1 (Conv2D)        (None, 56, 56, 256)       295168    \n_________________________________________________________________\nblock3_conv2 (Conv2D)        (None, 56, 56, 256)       590080    \n_________________________________________________________________\nblock3_conv3 (Conv2D)        (None, 56, 56, 256)       590080    \n_________________________________________________________________\nblock3_conv4 (Conv2D)        (None, 56, 56, 256)       590080    \n_________________________________________________________________\nblock3_pool (MaxPooling2D)   (None, 28, 28, 256)       0         \n_________________________________________________________________\nblock4_conv1 (Conv2D)        (None, 28, 28, 512)       1180160   \n_________________________________________________________________\nblock4_conv2 (Conv2D)        (None, 28, 28, 512)       2359808   \n_________________________________________________________________\nblock4_conv3 (Conv2D)        (None, 28, 28, 512)       2359808   \n_________________________________________________________________\nblock4_conv4 (Conv2D)        (None, 28, 28, 512)       2359808   \n_________________________________________________________________\nblock4_pool (MaxPooling2D)   (None, 14, 14, 512)       0         \n_________________________________________________________________\nblock5_conv1 (Conv2D)        (None, 14, 14, 512)       2359808   \n_________________________________________________________________\nblock5_conv2 (Conv2D)        (None, 14, 14, 512)       2359808   \n_________________________________________________________________\nblock5_conv3 (Conv2D)        (None, 14, 14, 512)       2359808   \n_________________________________________________________________\nblock5_conv4 (Conv2D)        (None, 14, 14, 512)       2359808   \n_________________________________________________________________\nblock5_pool (MaxPooling2D)   (None, 7, 7, 512)         0         \n_________________________________________________________________\nconv2d_1 (Conv2D)            (None, 3, 3, 256)         524544    \n_________________________________________________________________\nbatch_normalization_1 (Batch (None, 3, 3, 256)         1024      \n_________________________________________________________________\nactivation_1 (Activation)    (None, 3, 3, 256)         0         \n_________________________________________________________________\nconv2d_2 (Conv2D)            (None, 2, 2, 128)         131200    \n_________________________________________________________________\nbatch_normalization_2 (Batch (None, 2, 2, 128)         512       \n_________________________________________________________________\nactivation_2 (Activation)    (None, 2, 2, 128)         0         \n_________________________________________________________________\nflatten_1 (Flatten)          (None, 512)               0         \n_________________________________________________________________\ndense_1 (Dense)              (None, 12)                6156      \n=================================================================\nTotal params: 20,687,820\nTrainable params: 12,461,708\nNon-trainable params: 8,226,112\n_________________________________________________________________\n",
          "name": "stdout"
        }
      ]
    },
    {
      "metadata": {
        "trusted": true,
        "_uuid": "8c84c400c60f0eaca879c56ddc61060277712115"
      },
…
